…
tps://localhost:8080/"},"id":"LORLxNcDVD74","executionInfo":{"status":"ok","timestamp":1722035785039,"user_tz":300,"elapsed":284,"user":{"displayName":"Basit Hussain","userId":"00253640594032612857"}},"outputId":"325dde86-dcd3-44db-e396-1905e7679162"},"execution_count":17,"outputs":[{"output_type":"stream","name":"stdout","text":["Model: \"sequential_1\"\n","_________________________________________________________________\n"," Layer (type)                Output Shape              Param #   \n","=================================================================\n"," conv2d (Conv2D)             (None, 30, 30, 32)        896       \n","                                                                 \n"," max_pooling2d (MaxPooling2  (None, 15, 15, 32)        0         \n"," D)                                                              \n","                                                                 \n"," conv2d_1 (Conv2D)           (None, 13, 13, 64)        18496     \n","                                                                 \n"," max_pooling2d_1 (MaxPoolin  (None, 6, 6, 64)          0         \n"," g2D)                                                            \n","                                                                 \n"," conv2d_2 (Conv2D)           (None, 4, 4, 128)         73856     \n","                                                                 \n"," flatten (Flatten)           (None, 2048)              0         \n","                                                                 \n"," dense_4 (Dense)             (None, 64)                131136    \n","                                                                 \n"," dropout (Dropout)           (None, 64)                0         \n","                                                                 \n"," dense_5 (Dense)             (None, 10)                650       \n","                                                                 \n","=================================================================\n","Total params: 225034 (879.04 KB)\n","Trainable params: 225034 (879.04 KB)\n","Non-trainable params: 0 (0.00 Byte)\n","_________________________________________________________________\n"]}]},{"cell_type":"code","source":["#C : Plot Model Architectu
…
